最终版YoloV8-Pose-Keypoint-Classification-master/models/Handspose_classification.pt (torch, 22277 bytes, 4 tensors)

l1.weight f4 [256, 12]
-0.96473604 0.5519114 0.036786754 0.6816527 -0.06782034 -1.2628648 1.7667658 1.7070568
-5.202233 -5.1574907 0.3844808 -0.97603464 -0.00872494 -0.50113773 0.1711508 -0.5633482
-0.62174714 -1.0305256 0.1626175 0.00913368 -0.40859157 -0.29203895 -0.10144819 0.4846572
0.16366152 -0.28115216 -0.16267516 0.09694728 -0.0067742933 -0.039985377 -0.11817692 -0.13171074
0.14143932 -0.12471022 0.16029552 -0.084575504 0.005268812 -0.15878972 0.09409675 0.026917666
-0.14324397 -0.1419267 -0.19286285 0.074160725 0.18078896 -0.13660137 -0.08259013 0.0869661
-0.19335833 0.012513165 -0.12043033 0.44965348 0.26335564 -0.20442444 -0.25621432 0.5827708
0.20992932 -1.5660343 -0.18081696 -0.95474637 0.577434 -0.6192395 -0.071270086 -1.1880771
-0.021756187 -0.3733225 -0.047933046 -0.21694729 -0.040282626 0.5270545 0.11594854 0.056203455
-0.07739784 -0.23468018 -0.17952289 0.0055021048 -0.12173462 -0.28221574 -0.2706058 -0.24303624
0.061045796 -0.13247535 0.004098505 -0.030024856 0.96404606 -1.3970608 -2.1993518 -0.46957782
1.0496359 -0.73346436 -1.0054579 0.37848756 -0.3959814 1.0748618 1.9404756 1.2657193
-2.4883945 1.0003676 -0.98273075 -3.8271623 1.1983794 0.35639656 -1.000788 -0.8725063
0.8032375 1.5957611 0.002200898 -1.1482105 -0.11834567 -2.3701613 0.6442163 -2.0011067
0.9591111 -0.6950942 -0.038771514 0.97925913 0.96492505 0.6176942 -1.7895695 -1.4654548
-0.6189927 -0.08070629 -0.38852385 0.8590032 -0.7961502 0.1086593 0.0467096 -0.008759389
1.2153167 2.1062407 -0.94871193 0.8014956 1.2191982 1.1257186 0.73590225 1.3446889
-0.6103263 0.5251648 -0.3523937 -0.9921259 -1.678182 0.6667157 -1.6277097 -2.8099139
0.328362 2.0929613 -1.471898 2.1487384 -0.35230199 -0.81678224 0.39404294 -0.24956389
0.65555316 -2.55467 0.43736577 -1.6243858 0.31221032 -0.3547777 -0.53753346 -0.5249771
-0.23652361 -0.30415145 -0.34182763 -0.113175526 -0.12519243 0.65479 0.14753084 0.16048959
-0.58561254 -0.23427898 -0.0859354 0.5147106 -0.36211333 0.00029930874 0.0635301 0.47116023
-0.34142262 0.11510668 -0.36983657 -0.07914513 1.3580354 -1.2943658 1.8247155 -1.1263789
1.0133091 -0.7024343 -1.3844185 -3.5911746 1.3164564 0.09115508 -1.62833 -4.286044
-1.9640033 1.0398374 -1.6976 0.95388347 0.867548 -2.3936288 -1.0281702 -0.5341759
0.45943913 -0.28474513 0.4090548 -1.7147663 0.27783796 0.2872166 -1.4865017 -1.0073324
1.2621439 -0.3167005 -0.4457438 -1.0397024 -0.33868402 -1.5933173 0.94377327 -1.8316492
-0.26253077 0.1741596 -0.049375903 0.13780129 -0.11011327 -0.056054555 0.09395258 -0.17621867
-0.27886128 0.12130767 0.118022546 -0.105549686 0.89947814 -0.68276525 -1.4709877 -2.765
-0.96459013 -0.07937674 -1.0066727 -1.0971177 2.303262 0.83994395 -0.8967193 -0.70169663
1.3027397 1.0699781 -2.1003864 1.0201857 0.9403931 0.30204973 -1.9306253 -1.7126467
0.9162074 -3.3702006 -0.87855655 -4.3971024 -2.1650493 1.902421 -1.4951388 -0.45118836
00000000: f1f8 76bf 114a 0d3f b5ad 163d cb80 2e3f
00000010: 64e5 8abd 8ea5 a1bf 6225 e23f d680 da3f
00000020: b178 a6c0 2a0a a5c0 abda c43e 68dd 79bf
00000030: 0df3 0ebc 904a 00bf 2842 2f3e 9637 10bf
00000040: d22a 1fbf 43e8 83bf 3485 263e 6ea5 153c
00000050: ea32 d1be 2186 95be 12c4 cfbd fd24 f83e
00000060: e396 273e 2df3 8fbe 5194 26be 4c8c c63d
00000070: e4fa ddbb b5c7 23bd be06 f2bd 2edf 06be
00000080: 78d5 103e 1268 ffbd 8224 243e ec35 adbd
00000090: 00a6 ac3b c699 22be ccb5 c03d 7082 dc3c
000000a0: 8cae 12be 3c55 11be d77d 45be 94e1 973d
000000b0: be20 393e 3be1 0bbe 0425 a9bd 481b b23d
000000c0: baff 45be 0504 4d3c 2da4 f6bd fb38 e63e
000000d0: 8dd6 863e a454 51be 862e 83be 7830 153f
000000e0: b6f7 563e d073 c8bf 1528 39be 426a 74bf
000000f0: b7d2 133f 7b86 1ebf 0df6 91bd e912 98bf
00000100: 083a b2bc 2024 bfbe 7155 44bd 6e27 5ebe
00000110: 65ff 24bd 0bed 063f 6e76 ed3d 9835 663d
00000120: c282 9ebd 0050 70be d9d4 37be 004b b43b
00000130: 0050 f9bd 957e 90be d88c 8abe 7ede 78be
00000140: 280b 7a3d 9ea7 07be c04c 863b b0f6 f5bc
00000150: b9cb 763f e3d2 b2bf 2ec2 0cc0 816c f0be
00000160: 785a 863f 52c4 3bbf d8b2 80bf 1fc9 c13e
00000170: 13be cabe 1295 893f 8161 f83f 1703 a23f
00000180: db41 1fc0 0c0c 803f 3e94 7bbf 3af0 74c0
00000190: 7f64 993f 9c79 b63e d219 80bf 935c 5fbf
000001a0: f9a0 4d3f e641 cc3f f13c 103b 90f8 92bf
000001b0: 375f f2bd b9b0 17c0 5ceb 243f 2212 00c0
000001c0: 4e88 753f b2f1 31bf e1ce 1ebd bab0 7a3f
000001d0: 5405 773f 3521 1e3f 9d10 e5bf 0694 bbbf
000001e0: 4e76 1ebf 5749 a5bd 99ec c6be a2e7 5b3f
000001f0: 80d0 4bbf c488 de3d 9152 3f3d 8a83 0fbc
00000200: 7f8f 9b3f a6cc 0640 c9de 72bf d12e 4d3f
00000210: b00e 9c3f 8c17 903f 1764 3c3f c41e ac3f
00000220: 583e 1cbf 3371 063f f26c b4be f7fb 7dbf
00000230: abce d6bf e1ad 2a3f cb58 d0bf a1d5 33c0
00000240: 101f a83e 14f3 0540 2767 bcbf ee84 0940
00000250: ed60 b4be a418 51bf ffbf c93e ad8d 7fbe
00000260: 55d2 273f b77f 23c0 68ee df3e e0eb cfbf
00000270: 08da 9f3e 6ca5 b5be cb9b 09bf e664 06bf
00000280: 3f33 72be bdb9 9bbe 0804 afbe 92c8 e7bd
00000290: 7232 00be 51a0 273f 5312 173e 6257 243e
000002a0: b4ea 15bf d4e6 6fbe e6fe afbd 13c4 033f
000002b0: eb66 b9be 8aec 9c39 121c 823d ea3b f13e
000002c0: f2ce aebe 0dbd eb3d 385b bdbe d816 a2bd
000002d0: 1bd4 ad3f c7ad a5bf 4790 e93f 2f2d 90bf
000002e0: 1db4 813f bcd2 33bf a034 b1bf ced5 65c0
000002f0: a581 a83f 84af ba3d 1e6d d0bf 4627 89c0
00000300: 7664 fbbf 6419 853f f54a d9bf b531 743f
00000310: a017 5e3f 3731 19c0 159b 83bf c0bf 08bf
00000320: 9b3b eb3e 1dca 91be a16f d13e 767d dbbf
00000330: c740 8e3e 0e0e 933e b045 bebf 45f0 80bf
00000340: ee8d a13f 9126 a2be 8838 e4be f814 85bf
00000350: fe67 adbe d2f1 cbbf 209b 713f 7b73 eabf
00000360: 6f6a 86be e556 323e 633e 4abd c81b 0d3e
00000370: 1183 e1bd 7699 65bd 366a c03d ab72 34be
00000380: e8c6 8ebe 2870 f83d ceb5 f13d 6f2a d8bd
00000390: 3344 663f b4c9 2ebf 5349 bcbf c3f5 30c0
000003a0: 61ef 76bf 4690 a2bd a7da 80bf 5a6e 8cbf
000003b0: a568 1340 9106 573f 658f 65bf 64a2 33bf
000003c0: 2dc0 a63f 0bf5 883f bb6c 06c0 7295 823f
000003d0: 9abd 703f 43a6 9a3e bb1e f7bf 0238 dbbf
000003e0: 918c 6a3f 5eb1 57c0 15e9 60bf 10b5 8cc0
000003f0: 2b90 0ac0 8882 f33f b560 bfbf 2902 e7be

l1.bias f4 [256]
-0.45730987 -0.6369754 -0.20061266 -0.18034904 -0.36930203 -0.17647706 -0.042342186 -0.11499569
0.05828723 0.92953104 -1.3110149 -0.05877264 0.200801 -0.39076182 -0.47908333 -0.6511697
0.24766967 -0.21618272 -0.22272605 -1.0627521 -0.08541254 -0.05266118 -0.16907004 0.15547197
-0.4231582 0.09185025 -0.16844729 0.816913 -0.27980763 -0.14091457 -0.90997034 -0.24372827
-0.0995927 -0.55939114 0.27027097 -0.8900998 -0.35119283 0.8995265 -0.13252118 -0.26340672
-0.41300866 -0.46965623 -0.24420132 -0.19186875 -0.1072541 -0.40344146 -0.08310795 -0.47297654
-0.28887388 -0.30570176 -0.02208113 -0.023247378 -0.25152218 -0.07614733 -0.09718802 -0.27626207
-0.3261608 -0.28589934 0.5789942 -0.089588985 -0.38353458 -0.11048185 -0.2707293 -0.08675424
-0.14353849 0.05581662 -0.11001823 -0.019982649 -0.06530291 -0.36828074 -0.4056174 -0.14277422
-0.40293935 0.050437346 -0.16333716 -0.15260762 -0.13132559 -1.0131096 -0.03382213 -0.44204527
-0.19463098 -0.21870965 -0.5899276 -0.16568196 -0.55461353 -0.44356272 0.45609012 -0.602008
-0.4841876 -0.13314298 -0.08772564 0.46017885 -0.18088435 -0.25256637 -0.36452207 -0.25734222
-0.20619054 -0.84166586 -0.1545976 -0.27492052 -0.33963755 0.4414003 -0.3701935 0.91772527
-0.031052493 -0.2952142 0.09831276 -0.56675076 -0.32670984 -0.83622026 0.4582667 -0.2807415
-0.2256248 -0.61045927 -0.031126644 0.061241448 -0.161703 -0.9799031 0.25614685 -0.58017004
-0.59712976 -1.0458626 -0.45711473 0.31583947 -0.08199208 -0.13667706 -0.3291134 -1.0436205
0.05104235 -0.11423338 -0.16578463 -0.40492028 -0.470027 -0.14903884 -0.23489214 -0.77544516
-0.78427225 -0.099132136 0.8671486 -0.5134515 -0.41100737 -0.44344696 0.20292892 -0.54785866
-0.45245486 -0.16351505 -0.71510154 -1.2854035 -0.31611443 -0.2498437 -0.085168496 -0.20043308
-0.080705434 -0.039526857 -0.29271448 0.26821625 -0.69975233 0.82655483 0.051208824 0.17448245
-0.17082821 -0.20026429 -0.096021436 0.4215327 0.23912656 -0.13434309 -0.2812785 -0.15312558
-0.3299661 -0.017284874 -0.27422142 -0.04862933 -0.44364595 -0.5419663 -0.1269225 -0.4360762
-0.8120772 -0.4093231 -0.1500352 -0.046906766 -0.11829559 -0.13441789 -0.08924378 -0.21252498
-0.29862863 -0.43828496 0.4368351 -0.88007903 -0.21697657 -0.38871253 -0.23632412 0.08973966
-0.24233721 -0.27956164 -0.39317074 -0.6587624 -0.35415116 -0.06265583 -0.47179145 -0.24400094
-0.10404937 -0.034724656 -0.296732 -0.6543662 -0.18102573 -1.3782443 0.27682143 -0.20412795
-0.011157381 -0.2522734 -0.077809915 -0.124346845 -1.020394 -0.033400424 -0.16817944 -0.2699295
-0.30106696 -0.33872256 -0.06533617 -0.18859361 -0.3954191 -0.03936627 -0.23765829 -0.42007643
-0.5271415 -0.067608275 0.28330696 -0.2583716 -0.19149047 0.2172636 0.05496748 -0.7736745
-0.09755214 -0.10750744 -0.23876184 -0.030834634 -0.8245375 -0.16018876 -0.086240515 -0.29087114
-0.28709245 -0.056917023 -0.13290453 -0.011200038 -0.9541128 0.021562718 -0.69600075 -0.20739901
-0.0036179197 -1.9793632 -0.10206089 1.0387874 0.32183728 -0.47951317 -0.94298834 -0.13127449
00000000: 8524 eabe d210 23bf 686d 4dbe 6bad 38be
00000010: 2815 bdbe 67b6 34be 006f 2dbd dc82 ebbd
00000020: 97be 6e3d bff5 6d3f 56cf a7bf 94bb 70bd
00000030: c79e 4d3e ef11 c8be 694a f5be 0fb3 26bf
00000040: 1e9d 7d3e 015f 5dbe 4c12 64be 4308 88bf
00000050: c5ec aebd 40b3 57bd b220 2dbe 0b34 1f3e
00000060: 31a8 d8be fc1b bc3d 727d 2cbe 3621 513f
00000070: f242 8fbe e94b 10be d1f3 68bf e793 79be
00000080: 42f7 cbbd 4234 0fbf f560 8a3e 95dd 63bf
00000090: 8ccf b3be 5e47 663f a2b3 07be 3fdd 86be
000000a0: df75 d3be c876 f0be e90f 7abe 3e79 44be
000000b0: 0aa8 dbbd e18f cebe 8034 aabd fb29 f2be
000000c0: 47e7 93be f184 9cbe 7ce3 b4bc 4971 bebc
000000d0: 84c7 80be 22f3 9bbd 830a c7bd 3972 8dbe
000000e0: 8cfe a6be 6661 92be f738 143f 6e7a b7bd
000000f0: a55e c4be 4f44 e2bd 089d 8abe 35ac b1bd
00000100: c1fb 12be f89f 643d 3d51 e1bd a7b2 a3bc
00000110: 88bd 85bd 4b8f bcbe 15ad cfbe 6833 12be
00000120: 114e cebe 6497 4e3d db41 27be 2c45 1cbe
00000130: 377a 06be 93ad 81bf 1389 0abd c253 e2be
00000140: 584d 47be 6cf5 5fbe 7f05 17bf 88a8 29be
00000150: 27fb 0dbf a71a e3be a584 e93e 321d 1abf
00000160: 70e7 f7be a256 08be 80a9 b3bd 909c eb3e
00000170: bf39 39be 6150 81be a3a2 babe 5cc2 83be
00000180: 9d23 53be 6a77 57bf d54e 1ebe 62c2 8cbe
00000190: f9e4 adbe 38ff e13e 018a bdbe 0bf0 6a3f
000001a0: cc61 febc 5126 97be 3358 c93d 9416 11bf
000001b0: 8346 a7be 8812 56bf efa1 ea3e 5abd 8fbe
000001c0: 300a 67be 0f47 1cbf 4efd febc 50d8 7a3d
000001d0: 7995 25be eeda 7abf ae25 833e 0686 14bf
000001e0: 7fdd 18bf d3de 85bf f10a eabe b6b5 a13e
000001f0: 77eb a7bd 12f5 0bbe 8d81 a8be 5b95 85bf
00000200: c811 513d 31f3 e9bd 72c3 29be b651 cfbe
00000210: 61a7 f0be a39d 18be 9187 70be 9383 46bf
00000220: 11c6 48bf ca05 cbbd 73fd 5d3f 8f71 03bf
00000230: 8f6f d2be 7b0b e3be 99cc 4f3e 7740 0cbf
00000240: 2aa8 e7be 7d70 27be e510 37bf 1a88 a4bf
00000250: c0d9 a1be 07d7 7fbe d26c aebd 543e 4dbe
00000260: e448 a5bd eae6 21bd acde 95be a453 893e
00000270: f822 33bf 1999 533f 58c0 513d 87ab 323e
00000280: 97ed 2ebe 1512 4dbe e3a6 c4bd 22d3 d73e
00000290: 98dd 743e 3c91 09be bc03 90be f4cc 1cbe
000002a0: 51f1 a8be 0299 8dbc c066 8cbe 8c2f 47bd
000002b0: 9025 e3be 4ebe 0abf f9f7 01be 6145 dfbe
000002c0: 4be4 4fbf cc92 d1be d4a2 19be 4f21 40bd
000002d0: f544 f2bd d8a4 09be 71c5 b6bd 26a0 59be
000002e0: dae5 98be e366 e0be daa8 df3e dc4c 61bf
000002f0: 1b2f 5ebe 5405 c7be f3fe 71be 6dc9 b73d
00000300: 3f27 78be b422 8fbe ad4d c9be a7a4 28bf
00000310: 4d53 b5be b351 80bd a68e f1be 62db 79be
00000320: d617 d5bd 713b 0ebd 42ed 97be 8b84 27bf
00000330: cf5e 39be 4f6a b0bf 8abb 8d3e eb06 51be
00000340: 73cd 36bc fb29 81be ce5a 9fbd 8fa9 febd
00000350: 459c 82bf e2ce 08bd 3b37 2cbe 3334 8abe
00000360: 7325 9abe 0b6d adbe f8ce 85bd af1e 41be
00000370: 5f74 cabe 873e 21bd b25c 73be 4214 d7be
00000380: bff2 06bf 3576 8abd 9c0d 913e 4849 84be
00000390: 1416 44be 597a 5e3e 9525 613d 880f 46bf
000003a0: 6bc9 c7bd dc2c dcbd fc7d 74be ea98 fcbc
000003b0: e414 53bf 8608 24be de9e b0bd 10ed 94be
000003c0: c8fd 92be d321 69bd 2018 08be 5d80 37bc
000003d0: bd40 74bf 4ca4 b03c 1b2d 32bf 6860 54be
000003e0: 9f1a 6dbb c65b fdbf 4d05 d1bd fcf6 843f
000003f0: dbc7 a43e c082 f5be af67 71bf d26c 06be

l2.weight f4 [7, 256]
1.2458811 -0.042336635 -0.014473657 0.007692814 -0.4040557 0.06923987 0.050458997 0.527663
-0.06282941 -3.098982 0.2762448 0.70820653 -0.47121674 0.2853296 -0.40443975 1.8047205
-0.75782543 -1.3991394 -0.037588496 3.6537015 -0.79636765 -0.14972737 -1.1914564 0.09078198
0.1766085 1.3013806 0.051613837 0.106427155 -0.2625081 -0.07305993 -0.36361524 -0.008704683
-0.06994526 -0.8855339 -0.5064683 -2.113869 -1.6232492 0.6199667 -0.007577452 1.4816978
0.012537995 -0.47847703 0.030099481 -0.10909757 0.008446024 -0.3011091 -0.3563503 0.3033422
0.5214353 -0.20364192 0.594131 -0.15394266 0.27324393 0.5415697 0.30872515 -0.97501427
-0.100598454 -1.0295664 0.52179015 0.3033164 -0.2738929 0.76377827 -0.0067863315 0.5524259
-0.031739146 0.10240352 -0.017448515 3.8852074 0.759516 0.07188109 0.53380615 0.00023138523
0.94869864 0.23498677 0.054152384 -0.00050560315 -0.63573426 0.49327594 0.6915687 -1.3642199
0.34090236 -0.0034727007 0.39205915 0.028856736 0.43111753 -0.8476719 -2.6861653 -1.221266
-0.047635 -0.007163912 0.03769637 0.9580254 -1.2916063 -0.117698416 0.8342746 0.012453705
0.014600582 0.60494167 -0.04368728 0.011909962 -0.19113691 -2.3416002 -0.3957963 1.0090375
0.09170528 0.08939517 -0.08933832 0.11868607 0.053650893 -0.20272544 -1.4404417 -0.017435433
0.03814958 0.34669277 -2.0237575 -0.46523297 0.3230456 2.2596085 -0.2803743 0.08764395
-2.277663 0.6388486 0.12760757 -3.4171166 0.14251138 -0.1149674 0.13193615 -0.6473706
-1.865239 0.28021723 -0.014772536 0.9572061 0.4878966 -0.024161179 0.0021853165 -0.6190956
4.1375217 -1.1386592 -0.1360029 -2.555309 -0.105011046 -0.6122565 -1.197141 -0.107744895
1.8326463 -0.073207766 -0.5950498 -3.892602 -0.5905682 -0.0084460005 0.85045755 0.0016267351
0.2956715 1.377017 -0.26284805 0.5931939 -0.24452083 0.25979874 -0.3484526 -1.1805104
0.012646865 -0.021851905 -1.3705544 -0.110558085 0.44690785 1.0323622 -0.06375204 0.030512389
0.63749075 -0.073898874 0.23735973 -0.4656577 0.0623648 -0.81536347 0.14222813 -0.32916713
-0.040203147 0.8402975 -0.050932854 0.11158927 -0.13953456 0.016363878 -0.17428154 0.078844085
0.3054178 0.27670604 0.58331436 -3.7111545 -0.07169523 -0.284615 -0.109824225 -0.38783342
0.05698068 0.076155186 -0.12508221 -0.057290986 0.39550316 1.1259105 0.1434388 -0.019830182
-0.05430239 0.14913517 -0.055223186 0.40326673 -0.04331249 0.7001936 -0.6266283 0.58469903
1.0487094 -0.0679291 -0.059856616 0.09025007 -3.890903 0.11293222 -0.42555627 -0.8499536
0.025914375 -0.045992132 -0.13704665 -0.030725023 -0.13321081 -0.8675875 -0.053611316 0.49708885
0.14898157 0.1643392 -0.877969 -0.077341795 -0.002914698 0.47887817 -0.043992978 1.8261912
0.5535944 0.058423355 -0.046961777 0.8982249 -2.269887 -0.18015283 1.0086873 0.1839989
-0.17789392 0.2900279 -0.03479799 -0.18556376 0.053773172 -0.44730636 0.38854197 0.033460677
-0.6079439 1.118781 -0.08726061 0.14422107 0.026731933 -0.2121886 0.5870914 0.38879278
00000000: 0879 9f3f 2e69 2dbd eb22 6dbc 0014 fc3b
00000010: 64e0 cebe a2cd 8d3d 18ae 4e3d ec14 073f
00000020: b5ac 80bd b955 46c0 f56f 8d3e 064d 353f
00000030: 5243 f1be b916 923e ba12 cfbe 1501 e73f
00000040: d900 42bf 0017 b3bf 65f6 19bd 3fd6 6940
00000050: c0de 4bbf 2252 19be a581 98bf e7eb b93d
00000060: dcd8 343e a493 a63f 0869 533d 7bf6 d93d
00000070: 7667 86be 72a0 95bd c72b babe 169e 0ebc
00000080: 763f 8fbd 5ab2 62bf e8a7 01bf a149 07c0
00000090: a1c6 cfbf 23b6 1e3f 464c f8bb 46a8 bd3f
000000a0: 2a6c 4d3c f1fa f4be 3093 f63c 8c6e dfbd
000000b0: 3161 0a3c f92a 9abe 8c73 b6be ab4f 9b3e
000000c0: c97c 053f 8287 50be f818 183f 25a3 1dbe
000000d0: a1e6 8b3e 50a4 0a3f 3911 9e3e 899a 79bf
000000e0: 9006 cebd d5c8 83bf 0a94 053f 4a4c 9b3e
000000f0: b13b 8cbe f986 433f e05f debb c96b 0d3f
00000100: e800 02bd f0b8 d13d 30f0 8ebc 3da7 7840
00000110: a46f 423f 6536 933d 85a7 083f 00a0 7239
00000120: eadd 723f 5fa0 703e e4ce 5d3d 748a 04ba
00000130: 7bbf 22bf aa8e fc3e a50a 313f c29e aebf
00000140: c18a ae3e 4096 63bb fabb c83e f664 ec3c
00000150: 70bb dc3e 0701 59bf 22ea 2bc0 7252 9cbf
00000160: eb1c 43bd 40bf eabb 8267 1a3d 2741 753f
00000170: 5b53 a5bf de0b f1bd 0593 553f a00a 4c3c
00000180: 4837 6f3c 75dd 1a3f 6ff1 32bd 0022 433c
00000190: 65b9 43be c7dc 15c0 d0a5 cabe 2428 813f
000001a0: facf bb3d d114 b73d 02f7 b6bd af11 f33d
000001b0: 0ac1 5b3d 4297 4fbe 6560 b8bf c1d4 8ebc
000001c0: bc42 1c3d b781 b13e 3e85 01c0 0433 eebe
000001d0: 3c66 a53e 6d9d 1040 388d 8fbe ac7e b33d
000001e0: 3bc5 11c0 958b 233f 8fab 023e 0ab2 5ac0
000001f0: 81ee 113e 0774 ebbd 451a 073e 14ba 25bf
00000200: 27c0 eebf a278 8f3e 8208 72bc 750b 753f
00000210: 95cd f93e aaed c5bc 8737 0f3b 0d7d 1ebf
00000220: 9466 8440 96bf 91bf 5844 0bbe 2f8a 23c0
00000230: 0810 d7bd d8bc 1cbf eb3b 99bf 5ba9 dcbd
00000240: 2794 ea3f f4ed 95bd 2f55 18bf 6420 79c0
00000250: 7a2f 17bf 1861 0abc 96b7 593f 2c38 d53a
00000260: 4162 973e 1842 b03f 0594 86be 8edb 173f
00000270: ab63 7abe 5704 853e 6168 b2be f71a 97bf
00000280: cc34 4f3c c402 b3bc 546e afbf 476c e2bd
00000290: 1bd1 e43e 7224 843f 6e90 82bd 1ef5 f93c
000002a0: 9832 233f 4b58 97bd 6e0e 733e b06a eebe
000002b0: 3c72 7f3d a9bb 50bf 40a4 113e 9888 a8be
000002c0: 0eac 24bd bd1d 573f f89e 50bd ea88 e43d
000002d0: 26e2 0ebe 8a0d 863c dc76 32be 0279 a13d
000002e0: b95f 9c3e 6aac 8d3e 1754 153f 8e83 6dc0
000002f0: f3d4 92bd 0fb9 91be 86eb e0bd 1a92 c6be
00000300: 9364 693d 40f7 9b3d 8d15 00be f4a9 6abd
00000310: 647f ca3e d61d 903f 9fe1 123e e872 a2bc
00000320: 2f6c 5ebd e4b6 183e b531 62bd fa78 ce3e
00000330: 7068 31bd e33f 333f b66a 20bf d6ae 153f
00000340: 1c3c 863f 691e 8bbd 362c 75bd 07d5 b83d
00000350: 8e04 79c0 0249 e73d 83e2 d9be 8f96 59bf
00000360: 624a d43c 3f62 3cbd f555 0cbe 0bb3 fbbc
00000370: 6a68 08be 371a 5ebf 8a97 5bbd 6e82 fe3e
00000380: a08e 183e 8948 283e 94c2 60bf 6065 9ebd
00000390: 8504 3fbb 852f f53e fb31 34bd a2c0 e93f
000003a0: 5db8 0d3f 544d 6f3d fe5a 40bd 11f2 653f
000003b0: d445 11c0 fc79 38be aa1c 813f 356a 3c3e
000003c0: d329 36be 897e 943e 5688 0ebd 6d04 3ebe
000003d0: 4241 5c3d 5705 e5be f9ee c63e 100e 093d
000003e0: 36a2 1bbf 3734 8f3f b1b5 b2bd b0ae 133e
000003f0: edfc da3c f847 59be 9f4b 163f d90f c73e

l2.bias f4 [7]
0.20039657 1.2624233 1.4305857 0.026644785 -0.8982801 -0.12384278 -1.0523496
00000000: c234 4d3e 1697 a13f 6f1d b73f 2a46 da3c
00000010: aff5 65bf 49a1 fdbd 64b3 86bf
