最终版YoloV8-Pose-Keypoint-Classification-master/models/Legspose_classification.pt (torch, 17151 bytes, 4 tensors)

l1.weight f4 [256, 12]
0	0xbed3cc46	-0.41366786
1	0xbd1df38d	-0.038562346
2	0xbe86d95b	-0.26337704
3	0x3ed5cdb5	0.41758505
4	0x3eaef059	0.34167746
5	0xbea9c8f2	-0.33161122
6	0x3e560414	0.20899993
7	0xbe367f1f	-0.1782193
8	0x3e111271	0.14167191
9	0xbe73a6a0	-0.23794031
10	0x3c1bf50d	0.009518874
11	0xbdc4bc03	-0.09606173
12	0xbdb181cd	-0.08667336
13	0xbe44adb2	-0.19206885
14	0x3e020f46	0.12701139
15	0x3e1ac864	0.15115505
16	0xbe866d2e	-0.26255172
17	0xbdd1b09e	-0.10238765
18	0xbdb9d473	-0.090737246
19	0xbb42937b	-0.0029689956
20	0xbe5b1bfa	-0.21397391
21	0xbe0979c9	-0.13425364
22	0xbdbe7298	-0.09299201
23	0x3de1e460	0.11029887
24	0xbdc6a44a	-0.096993044
25	0x3e5db6c4	0.21651751
26	0xbe916fc8	-0.28405595
27	0x3d07a9a0	0.03312075
28	0xbdf490e0	-0.11941695
29	0xbe078988	-0.13236058
30	0xbcb3a140	-0.021927476
31	0x3e91f052	0.28503662
32	0x3e5c38d0	0.21506047
33	0xbe33a14c	-0.17541999
34	0x3dcf88c4	0.10133508
35	0xbce8c4d0	-0.02841416
36	0x3e9ee24b	0.31032023
37	0x3f14cb0a	0.58122313
38	0x3e0ae686	0.135645
39	0x3fb56b93	1.4173454
40	0x40340a0c	2.8131132
41	0x3f8a0420	1.0782509
42	0xc0588a25	-3.3834317
43	0xc06eea2a	-3.7330422
44	0xc00d5f82	-2.2089543
45	0xc0300292	-2.7501569
46	0x3b78140f	0.0037853753
47	0xbe7d7028	-0.24749815
48	0xbe368db0	-0.17827487
49	0x3d67c036	0.05657979
50	0xbf151026	-0.58227766
51	0x3f8b69d1	1.0891668
52	0xbf7a1d4b	-0.9770095
53	0xbf28bed5	-0.65916187
54	0xbf2596ea	-0.646834
55	0x3e1c5f7a	0.15270796
56	0xbf2a7c7d	-0.66596204
57	0xbf61ca31	-0.88199145
58	0xbe9ac266	-0.3022644
59	0x3f1b47d5	0.6065648
60	0xbefd2199	-0.49439695
61	0x3f101988	0.5628896
62	0xbee5539c	-0.4479035
63	0x3f4e9118	0.80690145
64	0xbf805ab3	-1.0027679
65	0xbd8567ab	-0.06513914
66	0x3f44d480	0.7688675
67	0xbf11cf2f	-0.5695676
68	0xbfde8204	-1.7383428
69	0xbdd59036	-0.10427897
70	0xbe9462af	-0.2898154
71	0xbd506a07	-0.050882366
72	0x3e26e0fc	0.16296762
73	0xbdafdac7	-0.0858665
74	0x3d6026c2	0.054724462
75	0xbebb7c9d	-0.3661851
76	0xbe80cb02	-0.25154883
77	0xbda4c85b	-0.08046027
78	0x3e3a06d2	0.18166664
79	0xbdf180f5	-0.11792175
80	0x3d857f8c	0.06518468
81	0xbe0a8320	-0.13526583
82	0x3e0918d1	0.13388373
83	0xbec450b6	-0.38342828
84	0x3e168c9d	0.14702077
85	0xbdb02556	-0.08600871
86	0x3d95438e	0.07288276
87	0xbe9e2efd	-0.30895224
88	0xbd724aa8	-0.05915323
89	0xbe5c741b	-0.21528666
90	0xbe14b151	-0.14520766
91	0xbc2e0d20	-0.010623246
92	0x3d079300	0.033099174
93	0x3dec1368	0.11527139
94	0x3db7c158	0.08972424
95	0xbdcb5e7c	-0.09930131
96	0xbd9190ff	-0.07107734
97	0x3dc2385f	0.09483408
98	0xbe533722	-0.206265
99	0x3f38d30f	0.7219705
100	0x3f307c78	0.68939924
101	0xbef83395	-0.48476854
102	0xbf070e3a	-0.52756083
103	0xbd666ad9	-0.05625424
104	0x3f0c7255	0.54861957
105	0xbe20b997	-0.15695797
106	0x3e2b4438	0.16725242
107	0xbe402689	-0.187647
108	0xbdc5a91e	-0.09651397
109	0xbf89bfff	-1.0761718
110	0xbeb8a9db	-0.3606709
111	0xbf804ccb	-1.0023435
112	0xbcb71c19	-0.022352265
113	0x3eebe753	0.46074924
114	0x3e9104c6	0.28323954
115	0x3ded9c37	0.11602061
116	0x3e5160f0	0.20447135
117	0x3f55c9e0	0.8351116
118	0x3e83c01f	0.25732514
119	0x3f806fe2	1.0034144
120	0x3de4637c	0.11151788
121	0x3e30535c	0.17219299
122	0x3e40d28e	0.1883032
123	0xbedf9c30	-0.4367385
124	0xbf5213f4	-0.82061696
125	0xbf7e11f9	-0.99246174
126	0x3ecfd70a	0.4059375
127	0xbe345cc4	-0.17613512
128	0xbf0b1664	-0.5433104
129	0xbe59b4c2	-0.2126036
130	0xbeb7cd69	-0.35898903
131	0xbef26337	-0.4734132
132	0x3dba31f2	0.090915576
133	0xbf6ba3d7	-0.92046875
134	0xbee3d73b	-0.44500145
135	0xbf68bbcf	-0.90911573
136	0xbec82e98	-0.39098048
137	0x3f37a6b8	0.7173877
138	0x3ebdec55	0.3709437
139	0x3f11b424	0.569155
140	0xbe7010a3	-0.23443846
141	0x3ef41b47	0.4767706
142	0x3e3b46fb	0.18288796
143	0x3f821489	1.0162517
144	0x3d8ffadc	0.070302695
145	0xbe707cbc	-0.23485082
146	0xbe5fb6e6	-0.21847114
147	0x3d24cf48	0.04023674
148	0xbdcb4c6e	-0.09926687
149	0x3e188f6e	0.14898464
150	0xbe3eb596	-0.18623957
151	0x3e598748	0.21243012
152	0xbe934517	-0.2876365
153	0xbe2c2a45	-0.16813
154	0xbe5d507c	-0.21612734
155	0xbe4127b0	-0.18862796
156	0x3b17f1d0	0.0023184903
157	0x3e489734	0.1958893
158	0xbebb46ff	-0.36577603
159	0x3ef6e1ac	0.4821905
160	0x3f1ebdf1	0.6200858
161	0xbe1ed3c0	-0.15510464
162	0xbf3656cb	-0.71226186
163	0xbe3561b5	-0.17713054
164	0x3ef2605b	0.47339138
165	0xbea3825f	-0.31935403
166	0x3eb2380b	0.34808382
167	0xbdb3536e	-0.08756147
168	0xbe1cc263	-0.15308528
169	0x3f1cf99f	0.6131839
170	0x3e338c82	0.17534068
171	0x3f618477	0.8809275
172	0xbf6d2b81	-0.92644507
173	0x3e4c8b0a	0.19974914
174	0x3fd5207b	1.6650537
175	0xbe75a1c6	-0.23987493
176	0xbf735e5f	-0.95065874
177	0xbf0c181c	-0.5472429
178	0xbf82211e	-1.0166357
179	0xbf94fe30	-1.1640072
180	0xbfdbdc98	-1.7176695
181	0xbfac3000	-1.3452148
182	0x3f0e54e8	0.55598307
183	0x3cd30437	0.025758846
184	0xbf3df2a4	-0.74198365
185	0xbf3196e2	-0.69370854
186	0x3ffb45a9	1.9630634
187	0x3f9ec9fb	1.240539
188	0xbecd6573	-0.40116462
189	0x3de6fff9	0.11279292
190	0xbff2a2dd	-1.8955952
191	0xbff4e5e7	-1.9132661
192	0x3e0d46dc	0.13796562
193	0x3ee9eaf9	0.45687082
194	0xbe4fd34d	-0.20295449
195	0x3f41fe71	0.7577887
196	0x3f79a341	0.9751473
197	0xbe935948	-0.28779054
198	0xbf954246	-1.166085
199	0x3d92a77e	0.07160853
200	0x3f0770ab	0.5290629
201	0xbea24e32	-0.31700283
202	0x3deb14c2	0.114785686
203	0x3e1fd4c1	0.15608503
204	0xbeaa3593	-0.33244
205	0x3ecd7ba2	0.40133387
206	0x3c3bc192	0.011459725
207	0x3f2fdb8d	0.6869438
208	0x3f0aa1c0	0.5415306
209	0xbf2bb373	-0.6707069
210	0xbf2960f4	-0.66163564
211	0x3dbe45f4	0.09290686
212	0x3edd7cfb	0.43259415
213	0xbea56ee9	-0.3231118
214	0x3ea12940	0.31476784
215	0x3dc7068e	0.09718047
216	0x3ccef218	0.025261924
217	0x3f3beb16	0.7340559
218	0xbf086b2b	-0.53288525
219	0xbeecafd0	-0.46227884
220	0x4046f77a	3.1088548
221	0x3fd75fee	1.682615
222	0xc01f7ce2	-2.4919972
223	0xc02e1ae6	-2.7203918
224	0xc08aa910	-4.3331375
225	0xbef806ed	-0.48442784
226	0xbe24fe04	-0.16112524
227	0xbe7459d6	-0.23862395
228	0x3e6a376d	0.22872706
229	0xbf99a887	-1.2004555
230	0xbe83276e	-0.2561602
231	0xbfb0a862	-1.3801386
232	0xbe5ef365	-0.21772535
233	0x3f4a39dd	0.7899454
234	0x3f0a3937	0.5399355
235	0x3f018930	0.50599957
236	0xbe506eb1	-0.20354725
237	0x3eb021ae	0.34400696
238	0x3ee1c570	0.44095945
239	0x3f7dc216	0.99124277
240	0x3e4c8692	0.1997321
241	0x3ef56233	0.47926483
242	0xbdec41dd	-0.11536
243	0x3f3a49be	0.7276877
244	0x3f6412b1	0.8909102
245	0xbe94d3f5	-0.2906796
246	0xbf891cbc	-1.0711894
247	0xbe90bda4	-0.28269684
248	0x3f150b9e	0.5822085
249	0xbe6ba8b3	-0.23013572
250	0x3f2410eb	0.64088315
251	0xbbfa4f86	-0.0076388745
252	0xbf961c33	-1.1727356
253	0xbfa0788d	-1.2536789
254	0x3ef9e547	0.48807737
255	0xbeab3a94	-0.3344313

l1.bias f4 [256]
0	0xbe8529d1	-0.26008466
1	0xbea1da80	-0.31612015
2	0xbe8e6d7e	-0.2781791
3	0xbe5b116b	-0.21393363
4	0xbe02b52a	-0.12764421
5	0xbe2215d4	-0.1582864
6	0xbe3f33df	-0.18672131
7	0xbe0f58ab	-0.13998668
8	0xbe48da6f	-0.19614576
9	0xbf0cbdfd	-0.549774
10	0xbe837013	-0.25671443
11	0xbf1544be	-0.5830802
12	0xbe6cca67	-0.23124085
13	0xbe93838f	-0.2881131
14	0x3df1a059	0.11798162
15	0xbec737b1	-0.38909677
16	0xbf145105	-0.57936126
17	0xbe97d5af	-0.29655215
18	0xbe8cb6e5	-0.27483287
19	0xbebe41d2	-0.37159592
20	0xbefb3eee	-0.4907145
21	0xbcbdb2a9	-0.02315648
22	0xbeb4260a	-0.35185272
23	0xbe91e8f9	-0.28498057
24	0xbe7a8048	-0.24462998
25	0xbe803f54	-0.25048316
26	0xbeb59c4d	-0.3547081
27	0xbd1bee73	-0.0380692
28	0xbe565802	-0.2093201
29	0xbebe31cc	-0.37147367
30	0xbd85bfd5	-0.0653073
31	0xbe845ed7	-0.25853607
32	0xbd0b4268	-0.033998877
33	0xbdfb26be	-0.12263249
34	0xbe9aac12	-0.30209404
35	0xbe964caa	-0.29355365
36	0xbe962aee	-0.29329628
37	0xbe6ace64	-0.22930294
38	0xbe92e357	-0.28689072
39	0xbe874587	-0.26420233
40	0xbe8763c5	-0.26443306
41	0xbc356e90	-0.011073723
42	0xbe99186f	-0.29901454
43	0xbe9772a7	-0.2957966
44	0xbe9e43d8	-0.30911136
45	0xbe3510c2	-0.17682174
46	0xbe04fb65	-0.12986524
47	0xbce4cba0	-0.027929127
48	0xbe110855	-0.14163335
49	0xbe425b2d	-0.18980093
50	0xbe73053b	-0.23732464
51	0xbde82fa2	-0.1133721
52	0xbe1805b5	-0.14845927
53	0xbdbd9470	-0.09256828
54	0xbe539c2f	-0.20665048
55	0xbeb69ff9	-0.35668924
56	0xbf18f67a	-0.59751093
57	0xbe85db94	-0.26144087
58	0xbe6b1828	-0.22958434
59	0xbde5a86b	-0.11213764
60	0xbe852f69	-0.26012734
61	0xbe9121be	-0.28346056
62	0x3cd93435	0.026514152
63	0xbeb91abc	-0.3615321
64	0xbe290750	-0.16506696
65	0xbdca3924	-0.0987418
66	0xbe9a461a	-0.30131608
67	0xbf07511c	-0.5285814
68	0xbeb2ff27	-0.3496029
69	0xbc9042f3	-0.017610049
70	0xbe413cd7	-0.18870865
71	0xbe41ab23	-0.1891294
72	0xbc997108	-0.018730655
73	0xbe8fa82e	-0.28057998
74	0xbdc51e57	-0.096249275
75	0xbe450d4b	-0.19243352
76	0xbe755c8f	-0.2396109
77	0xbe9d98b0	-0.30780554
78	0xbe82d440	-0.2555256
79	0xbe8102f8	-0.25197577
80	0xbd3e87e2	-0.046516307
81	0xbe8c8b85	-0.27450195
82	0xbe857dba	-0.26072484
83	0xbe91940f	-0.28433272
84	0xbd53a83e	-0.05167412
85	0xbe4e4958	-0.20145166
86	0xbe355271	-0.1770723
87	0xbf3ab7cf	-0.7293672
88	0xbe7ba154	-0.2457326
89	0xbe67bbb0	-0.22630191
90	0xbd3707ca	-0.044685163
91	0xbd4aabab	-0.04948012
92	0xbebdd29d	-0.37074748
93	0xbe069b26	-0.13145122
94	0xbd4407af	-0.04785889
95	0xbd4aaa49	-0.049478803
96	0xbd936d65	-0.071986
97	0xbf2a3f47	-0.66502804
98	0xbe502a37	-0.20328604
99	0xbeb3a2d1	-0.35085157
100	0xbedb59a2	-0.42841822
101	0xbeadd328	-0.33950162
102	0xbdb2d864	-0.087326795
103	0xbe534039	-0.20629968
104	0xbe7ad486	-0.24495134
105	0xbeb8cc13	-0.36093196
106	0xbe96d038	-0.29455733
107	0xbdcd6209	-0.10028464
108	0xbf398d78	-0.7248149
109	0xbd21f925	-0.039544243
110	0xbdcc4930	-0.09974897
111	0xbdaf952a	-0.08573373
112	0xbf36b98f	-0.7137689
113	0xbd1780ed	-0.036988188
114	0xbd8abe4d	-0.06774578
115	0xbebca4d0	-0.36844492
116	0xbdd8e989	-0.10591418
117	0xbe64459c	-0.22292179
118	0xbe823fd6	-0.25439328
119	0xbe7cc325	-0.24683817
120	0xbe88bacc	-0.26705015
121	0xbd41f4c4	-0.047352567
122	0xbe596c5b	-0.2123274
123	0xbe59b16c	-0.21259087
124	0xbddacf47	-0.10684066
125	0xbdd5188a	-0.10405071
126	0xbe7432e0	-0.23847532
127	0xbe40b87a	-0.18820372
128	0xbe870a56	-0.26375073
129	0xbd9f8051	-0.07788146
130	0xbe6146f2	-0.2199972
131	0xbe79f494	-0.24409705
132	0xbecdf64a	-0.40226966
133	0xbd10f07b	-0.03538559
134	0xbd9ed523	-0.07755496
135	0xbef9b64b	-0.4877189
136	0xbe6a43fb	-0.22877495
137	0xbe9a4eac	-0.30138147
138	0xbda1a4dd	-0.07892773
139	0xbe3afade	-0.1825976
140	0xbdd15218	-0.10220736
141	0xbea78458	-0.32718158
142	0xbe265a03	-0.16245274
143	0xbd0e1356	-0.03468641
144	0xbe6ebc47	-0.2331401
145	0xbe141743	-0.14461999
146	0xbd3b4e11	-0.045728747
147	0xbe073a61	-0.13205864
148	0xbc83a1c4	-0.016068347
149	0xbf055f44	-0.5209849
150	0xbe867735	-0.26262823
151	0xbe7f37d3	-0.24923639
152	0xbe8dfc0c	-0.2773136
153	0xbe4e1e1f	-0.20128678
154	0xbda7b05d	-0.081879355
155	0xbde8116d	-0.11331449
156	0xbe1eb4c4	-0.15498644
157	0xbe35667e	-0.17714879
158	0xbe80df8f	-0.25170562
159	0xbe92a8b5	-0.28644338
160	0xbe1a3bc9	-0.15061869
161	0xbe893aa8	-0.26802564
162	0xbe0ec296	-0.13941416
163	0xbdfdff40	-0.12402201
164	0xbe264c72	-0.16240099
165	0xbd5992f1	-0.05311865
166	0xbe76c545	-0.2409869
167	0xbe547555	-0.20747884
168	0xbe501210	-0.2031939
169	0xbc2c0f27	-0.0105016595
170	0xbdedf68f	-0.11619293
171	0xbdd7446c	-0.10511097
172	0xbe988ee4	-0.29796517
173	0xbf0c257e	-0.5474471
174	0xbe616f97	-0.22015224
175	0xbd77c14f	-0.060487088
176	0xbbaf445b	-0.005348725
177	0xbe22b18c	-0.15888041
178	0xbd501166	-0.050797842
179	0xbf3a96ae	-0.7288617
180	0xbec5bd4c	-0.38620985
181	0xbe0c8408	-0.13722241
182	0xbd99c28f	-0.07507812
183	0xbe0262a6	-0.12732944
184	0xbec36871	-0.3816562
185	0xbc6565b0	-0.014001295
186	0xbd94ddef	-0.07268893
187	0xbec7159e	-0.3888368
188	0xbd4acc40	-0.049511194
189	0xbea1e55a	-0.31620294
190	0xbdd0a423	-0.101875566
191	0xbd926833	-0.07148781
192	0xbdba39d1	-0.09093059
193	0xbe696b1b	-0.22794764
194	0xbe814c24	-0.25253403
195	0xbcbb2e00	-0.022849083
196	0xbf0f4613	-0.559663
197	0xbdc01612	-0.093792096
198	0xbd82942e	-0.06375919
199	0xbda82e84	-0.08211997
200	0xbe25af04	-0.16180044
201	0xbe0fa13f	-0.14026354
202	0xbe4f8d94	-0.20268852
203	0xbd8961de	-0.0670812
204	0xbed93950	-0.42426538
205	0xbd140a35	-0.036142547
206	0xbcb146c0	-0.021640182
207	0xbdb1d0b3	-0.08682384
208	0xbe1582ef	-0.14600728
209	0xbe1edabf	-0.15513133
210	0xbe702cba	-0.23454562
211	0xbe9f579f	-0.31121537
212	0xbe8f8e87	-0.28038427
213	0xbe18c96a	-0.14920583
214	0xbe03680f	-0.12832664
215	0xbdb7a462	-0.089669004
216	0xbe1703f7	-0.14747606
217	0xbf04cdd1	-0.5187655
218	0xbe91b5bf	-0.28458974
219	0xbcf9f4ad	-0.030512178
220	0xbe8a81ed	-0.2705225
221	0xbefdffb2	-0.49609143
222	0xbe85dc40	-0.261446
223	0xbe4a8b3f	-0.1977968
224	0xbf72512d	-0.94655114
225	0xbe552ff9	-0.20819081
226	0xbecbe2a7	-0.3982136
227	0xbd2a4703	-0.04157163
228	0xbe6ee1bc	-0.23328298
229	0xbebfc451	-0.37454465
230	0xbdc26f1e	-0.0949385
231	0xbf2233c7	-0.63360256
232	0xbde5c0fd	-0.1121845
233	0xbeb5fb1b	-0.3554314
234	0xbdca06ce	-0.09864579
235	0xbdd0e19f	-0.10199284
236	0xbda61f96	-0.08111493
237	0xbe9923de	-0.29910177
238	0xbe0b94e7	-0.1363102
239	0xbcd4d298	-0.025979325
240	0x3d6cf87d	0.057854164
241	0xbe56fda7	-0.20995198
242	0xbd5c7af9	-0.053828213
243	0xbe9f36bd	-0.3109645
244	0xbe29ddc2	-0.165885
245	0xbf1848e5	-0.5948623
246	0xbdacdc06	-0.08440404
247	0xbe6935f6	-0.2277449
248	0xbe65dc5a	-0.22447339
249	0xbf5795b6	-0.84212816
250	0xbe0a48d0	-0.13504338
251	0xbdcdcc25	-0.10048703
252	0xbe8a01e7	-0.26954576
253	0xbe2ded1b	-0.1698498
254	0xbdb5bc3e	-0.08873795
255	0xbe66167f	-0.22469519

l2.weight f4 [2, 256]
0	0x3d910ec1	0.07082892
1	0x3b3b1193	0.002854441
2	0xbc989fc4	-0.01863087
3	0xbf4b3cd5	-0.793897
4	0xbd9e85af	-0.07740342
5	0xbdc67763	-0.0969074
6	0xbd827440	-0.06369829
7	0xbd267bf0	-0.04064554
8	0x3c9e47f5	0.019321421
9	0xbf0d7fd9	-0.55273205
10	0x3d282b94	0.041057184
11	0xbea33825	-0.31878772
12	0x3d4d47d6	0.050117336
13	0x3d89dd8e	0.06731711
14	0xbecf95b9	-0.40543917
15	0x40052877	2.0805948
16	0x3e2e7e6d	0.17040415
17	0x3d8a6685	0.06757835
18	0xbf6b5bee	-0.9193715
19	0xbf86c8be	-1.0530012
20	0x3e2faa66	0.17154846
21	0x3f5444d5	0.8291753
22	0x3cba6148	0.022751465
23	0xbd9d3c04	-0.07677463
24	0x3d2a257f	0.041539665
25	0xbd280272	-0.041017957
26	0xbd0b6362	-0.034030326
27	0xbccc4201	-0.024933817
28	0xc0262b1f	-2.596382
29	0x3beb048e	0.007172174
30	0x3ee2481a	0.44195634
31	0x3c33ae14	0.010966796
32	0xbf1a765a	-0.6033684
33	0x3d7673a9	0.060168896
34	0xbf0d1507	-0.5511021
35	0x3aaeb6cb	0.0013329623
36	0xbb89b375	-0.004202301
37	0xbb163400	-0.0022919178
38	0x409314d6	4.5962934
39	0x3c35a598	0.011086844
40	0xbd4f7813	-0.05065162
41	0xbe1085d9	-0.14113559
42	0xbbe372b1	-0.0069411625
43	0x3c1b5437	0.009480528
44	0x3c946b3e	0.018117543
45	0xbe83bd27	-0.2573025
46	0x3ea57f36	0.32323617
47	0x3ba743a8	0.005104501
48	0x3cb1a56d	0.021685326
49	0x3dacb094	0.08432117
50	0x3c8ffd66	0.017576884
51	0xbcb71c38	-0.022352323
52	0xbd2e9af4	-0.042628244
53	0xbd49e1ad	-0.049287487
54	0xbdf8e6ca	-0.121533945
55	0x3d308b32	0.043101497
56	0xbfcd34d6	-1.6031749
57	0x3da49a7a	0.080372766
58	0xbb4179d3	-0.0029522076
59	0x3fcb917b	1.5903772
60	0xbb97853f	-0.0046240385
61	0xbbe73a80	-0.0070565343
62	0xbebc8207	-0.36817953
63	0xbe056769	-0.13027729
64	0x3c9ba899	0.019001292
65	0xbd614c0d	-0.05500417
66	0x3e69dc57	0.22837959
67	0xbe07c021	-0.13256885
68	0xbf4cc143	-0.79982394
69	0x3be1d9d7	0.0068924236
70	0xbecf333d	-0.4046878
71	0xbcd0e0a4	-0.025497742
72	0xbd8edeb8	-0.06976074
73	0xbcd08b9b	-0.025457194
74	0xbcba1bd8	-0.022718355
75	0xbdbecb53	-0.09316125
76	0x3d27ef92	0.040999956
77	0xbecbd0b5	-0.39807668
78	0x3d1bec26	0.038067006
79	0xbd925b9a	-0.07146378
80	0x3e843434	0.25821078
81	0xbd2d018a	-0.042237796
82	0xbc887a19	-0.016659783
83	0xbd709102	-0.05873204
84	0xbc23805b	-0.009979333
85	0x3bc5068b	0.006012743
86	0x3cf67a53	0.030087626
87	0xbf3df5de	-0.7420329
88	0x3c89a98a	0.016804475
89	0x3d34ed1a	0.04417143
90	0x3ab37fea	0.0013694738
91	0x3fa0d0ec	1.2563758
92	0xbd4b7e21	-0.049680833
93	0xbdfba5e1	-0.12287498
94	0x3f372e23	0.71554774
95	0xbea1cec6	-0.31603068
96	0x403414ef	2.8137777
97	0x3ec00735	0.375055
98	0xbd90e99f	-0.0707581
99	0x3dd34c3f	0.10317277
100	0x3d837719	0.064192005
101	0x3d12a7dd	0.03580462
102	0x3e375a38	0.1790551
103	0xbe2cffba	-0.16894427
104	0xbd3b5e5f	-0.045744296
105	0x3ec919dc	0.39277542
106	0x3e2554c0	0.16145611
107	0x3d91f087	0.07125955
108	0xbfae1c4a	-1.3602383
109	0xbd5ec3b1	-0.054385845
110	0xbb941846	-0.004519495
111	0x3d084816	0.03327187
112	0xbf08e4c7	-0.53474087
113	0x3d922140	0.07135248
114	0xbba6062d	-0.005066654
115	0x3daef6de	0.0854318
116	0xbed08b22	-0.4073115
117	0x3d2b7ade	0.041865222
118	0x3eac03a2	0.33596522
119	0xba466440	-0.0007568039
120	0xbbf8c73b	-0.0075921095
121	0xbc9f916b	-0.01947852
122	0xbda4c20f	-0.08044826
123	0xbc615458	-0.013753019
124	0xbe530303	-0.20606618
125	0xbee40db9	-0.4454172
126	0x3d7ee324	0.062228337
127	0x3d10f8c0	0.035393476
128	0xbd934d90	-0.07192528
129	0xbc36908e	-0.011142863
130	0xbe7889a3	-0.24271254
131	0xbd69f7c4	-0.057121053
132	0x3d6fd922	0.058556683
133	0x3d896f41	0.06710673
134	0xbc92f4b6	-0.017938953
135	0xbdcd11b0	-0.10013139
136	0x3d8609cd	0.06544838
137	0x3d6c1033	0.057632636
138	0xbcf5cd73	-0.030005192
139	0xbdb6685c	-0.08906624
140	0xbabab1c0	-0.0014243647
141	0xbe90a0c0	-0.28247643
142	0x3cc250f2	0.023720238
143	0x3dd8f69c	0.10593912
144	0x3d2f172e	0.042746715
145	0xbdc1d332	-0.094641104
146	0xbc95437b	-0.018220654
147	0x3db4a2a6	0.08820085
148	0x3d164609	0.036687884
149	0x3e9f71b7	0.31141445
150	0xbf077753	-0.5291645
151	0xbf2dbf46	-0.67869985
152	0x3dbbef92	0.09176554
153	0xbf3f728f	-0.7478418
154	0x3fa3b4fa	1.2789605
155	0x3e029361	0.12751533
156	0xbfa33a58	-1.275218
157	0x3d780f7a	0.060561635
158	0xbc57cda5	-0.013171588
159	0xbd42dcbf	-0.0475738
160	0xbc282c0a	-0.010264406
161	0x3d295eb0	0.041350067
162	0x3c2eb7c0	0.010663927
163	0x3cd992f5	0.026559332
164	0x3cc6dc17	0.024274869
165	0x3de9780c	0.1139985
166	0x3d118db0	0.035535514
167	0x3d82091a	0.06349392
168	0x3fcd6f89	1.6049663
169	0x3f3bc946	0.73353994
170	0xbe16d0e4	-0.14728123
171	0x3f06a0ab	0.5258891
172	0xbcc7091e	-0.02429634
173	0xbf8ddbe2	-1.1082728
174	0x3d9f3a71	0.07774819
175	0xbe2a4540	-0.1662798
176	0xbdb0ef18	-0.086393535
177	0xbdd41f1e	-0.10357498
178	0x3d21fada	0.03954587
179	0xbf6ad3f0	-0.9172964
180	0x3bb24694	0.0054405425
181	0xbdc216fd	-0.09477041
182	0x3c68e1b1	0.014213965
183	0x3cb059c5	0.02152718
184	0x3dbd9553	0.09256997
185	0x3ee9c61e	0.45658964
186	0x3d2f261e	0.04276096
187	0xbe5ae89a	-0.21377793
188	0x3fca5cea	1.5809605
189	0xbd62f047	-0.055404928
190	0xbd4b3be9	-0.04961768
191	0x3d9953d0	0.07486689
192	0x3ce628ec	0.028095685
193	0x3d8be5b5	0.068309225
194	0xbe993b10	-0.29927874
195	0x3fadc5d2	1.3575995
196	0xbfb68a7f	-1.4261016
197	0xbec357b6	-0.38152856
198	0x3e4b0745	0.19826992
199	0xba1225d9	-0.0005575098
200	0x3d8d901b	0.069122516
201	0x3cd69f10	0.026198894
202	0xbb4c8cd1	-0.0031211863
203	0xbec555fc	-0.38542163
204	0xbedac2b2	-0.42726666
205	0x3d1a4798	0.037665933
206	0xbdaae36c	-0.083441585
207	0x3de4f191	0.11178888
208	0xbb3cf881	-0.0028834643
209	0xbe055828	-0.1302191
210	0xbecfec0f	-0.40609786
211	0x3e362947	0.17789184
212	0x3dd34af1	0.10317028
213	0xbd8914e6	-0.06693439
214	0x3df3d93d	0.11906669
215	0xbe524521	-0.20534183
216	0x3e242fe6	0.16033897
217	0x3f261035	0.6486848
218	0xbd6fc4d0	-0.058537304
219	0xbd2a00b9	-0.041504595
220	0x3cbd1588	0.023081556
221	0xbf0924a0	-0.5357151
222	0x3d3a4112	0.045472212
223	0xbe4845b3	-0.19557838
224	0x3f3a4c40	0.727726
225	0x3dd93917	0.10606592
226	0x3d341cd5	0.04397281
227	0x3c85f70d	0.016353155
228	0xbc285c28	-0.010275878
229	0xbd8a8297	-0.06763189
230	0x40028690	2.039463
231	0xbf6a04c7	-0.9141354
232	0xbd8145c6	-0.06312136
233	0xbdf36852	-0.11885132
234	0x3c4933a9	0.012280383
235	0x3ffb01ca	1.9609921
236	0x3e1719ca	0.14755931
237	0x3d597736	0.053092204
238	0xbd6de3a5	-0.058078427
239	0xbd093cf1	-0.033505384
240	0xbf39540a	-0.7239386
241	0xbd4b5222	-0.049638875
242	0xbfcff843	-1.6247638
243	0x3d5e654b	0.05429582
244	0xbf44b31a	-0.7683579
245	0xbf882eb4	-1.0639253
246	0xbff9d5f7	-1.9518422
247	0x3d3b9110	0.04579264
248	0x3ce9fcb0	0.028562874
249	0x3e5ba58c	0.2144987
250	0x3e85203e	0.2600116
251	0xbda6d263	-0.08145597
252	0x3d535e5e	0.051603667
253	0xbf0a67c1	-0.54064566
254	0x3e094c9c	0.1340813
255	0x3cf3067d	0.02966618

l2.bias f4 [2]
0	0x3e283a8f	0.16428588
1	0xbe2c9210	-0.16852593
