最终版YoloV8-Pose-Keypoint-Classification-master/models/my_classification.pt (torch, 32411 bytes, 4 tensors)

l1.weight f4 [256, 24]
-0.54659563 0.1494259 -0.64636636 -0.009574507 -0.28175646 -0.7239213 -0.12386737 -0.3685197
-0.1402644 -0.8155905 -0.0057265814 -0.63207525 -0.49705455 -0.037196767 -0.37392026 -0.11750225
-0.28925353 -0.65219826 -0.44705588 -0.28896242 -0.33157992 -0.5481477 -0.32170653 -0.1179098
-0.07991218 0.020246869 -0.030846747 -0.1726128 -0.024414858 0.0033567543 0.030259408 -0.26048687
0.081541024 0.021480305 0.06854354 -0.096927315 -0.19821914 -0.06493859 -0.013653444 -0.058138166
-0.22990493 -0.08027535 0.03804195 -0.1887665 -0.18484089 0.10570493 1.392414 -0.80960834
-2.0612285 -1.8641356 0.32768464 0.19201782 -1.2615006 -1.0345616 1.311732 1.124551
-0.10300074 -0.037694465 0.9143485 0.82675177 -1.219378 -1.0363094 1.0997976 0.57780474
-0.33514172 -0.20149085 -0.15811394 -0.527505 -0.24803282 -0.39172754 -0.20786782 -0.5028399
-0.13867112 -0.071070746 0.09940413 -0.20093589 0.20153835 -0.07701625 -0.12076103 0.20197663
0.12915555 -0.08133687 0.18220979 -0.14345467 -0.06952393 -0.07238351 0.05284998 -0.15299536
-0.020689026 -0.01095216 0.08455655 -0.09275366 -0.115837485 -0.1585601 0.050458282 -0.04411775
-3.1713998 2.6257088 -1.2867521 0.45804423 2.0375476 0.6267353 -0.24542405 -0.5973876
0.30272156 0.88438475 -0.1419937 -0.44973853 0.5018062 0.8043375 -1.298235 -1.2320993
-0.87394935 -0.8952811 -0.036684323 0.39733756 -1.7515918 -1.1882932 -1.3708892 1.8306094
-0.18816887 0.057198644 0.17164192 -0.02610612 0.017910793 0.12622765 -0.13359459 -0.18751734
0.111061156 0.03505902 -0.16105303 -0.11966768 0.077155024 -0.08104373 -0.03098914 0.20323706
-0.1639389 -0.15469661 0.07011926 0.11036757 -0.18898273 -0.12479518 -0.029724702 -0.13339522
0.023355922 -0.096373044 0.0652482 -0.14355728 -0.068579644 -0.3055249 -0.23630336 -0.19856435
0.06295807 0.08020578 0.0588411 -0.25678506 -0.20806889 -0.27869403 -0.048637737 -0.12754719
-0.05255423 0.053393073 -0.2572515 -0.18750933 0.05711135 -0.19167238 -0.362883 0.19041207
-8.039598 0.55346024 -3.294042 -6.66854 3.0579367 -1.0670276 -1.4487406 -1.4039516
0.34081164 0.63611054 -1.0682888 -0.9109206 0.75894266 0.46575737 -3.8786464 2.5022821
2.5501053 0.752648 -1.4665874 -2.9387174 3.1015878 3.8467252 -1.4323835 0.5778085
-8.603421 1.4448514 1.3453819 1.2993087 3.9904547 -0.43057612 0.11505665 -0.16352846
0.52830756 1.6166182 -1.1739272 -0.8445818 1.1307803 0.04823957 0.5978542 0.036231764
-1.8080267 -2.0155241 -0.1819747 0.62731075 -0.31289595 0.75444883 -1.0960953 0.8181192
-0.23030907 0.13611208 -0.15185797 0.04163849 -0.113550164 -0.13409816 -0.21353857 0.15600844
-0.0010485761 0.082750574 0.059876166 -0.05936547 0.09048983 -0.10378486 0.066945404 0.068599686
-0.022838356 -0.15486042 0.025349924 -0.064525925 -0.124437585 0.0072715655 -0.19874229 -0.04401972
-1.1701297 -1.3313615 1.7861236 -0.6674776 -2.0733612 0.07252359 2.2961833 1.1660761
-2.084691 1.1361023 2.9163694 1.0160468 -0.9499788 -0.532094 0.962372 -0.26464248
00000000: b1ed 0bbf 1a03 193e 4478 25bf 65de 1cbc
00000010: 6242 90be e852 39bf 2dae fdbd 9dae bcbe
00000020: 79a1 0fbe 8aca 50bf 0ca6 bbbb afcf 21bf
00000030: ef7d febe a35b 18bd 7a72 bfbe 05a5 f0bd
00000040: 0a19 94be 77f6 26bf 82e4 e4be e2f2 93be
00000050: d8c4 a9be 6853 0cbf b8b6 a4be b17a f1bd
00000060: ffa8 a3bd c3dc a53c 51b2 fcbc 69c1 30be
00000070: ab01 c8bc fefc 5b3b 94e2 f73c 895e 85be
00000080: fbfe a63d 77f7 af3c 8e60 8c3d d481 c6bd
00000090: f5f9 4abe 86fe 84bd b2b2 5fbc 4922 6ebd
000000a0: 336c 6bbe 6767 a4bd e0d1 1b3d 014c 41be
000000b0: ee46 3dbe d47b d83d 9f3a b23f 7e42 4fbf
000000c0: 2beb 03c0 ff9b eebf 48c6 a73e 52a0 443e
000000d0: da78 a1bf 846c 84bf d6e6 a73f 4af1 8f3f
000000e0: 0df2 d2bd 8365 1abd be12 6a3f 01a6 533f
000000f0: 9414 9cbf c9a5 84bf 2bc6 8c3f 03eb 133f
00000100: b297 abbe 9e53 4ebe 9fe8 21be 910a 07bf
00000110: 51fc 7dbe 8390 c8be 4ddb 54be 1eba 00bf
00000120: cdff 0dbe 8a8d 91bd 6494 cb3d 23c2 4dbe
00000130: 1260 4e3e b2ba 9dbd 8f51 f7bd f6d2 4e3e
00000140: 5a41 043e f293 a6bd 3495 3a3e c8e5 12be
00000150: 9062 8ebd ce3d 94bd 3879 583d d1aa 1cbe
00000160: 087c a9bc b070 33bc fc2b ad3d a2f5 bdbd
00000170: 343c edbd 945d 22be 58ad 4e3d d0b4 34bd
00000180: 37f8 4ac0 9d0b 2840 4bb4 a4bf c684 ea3e
00000190: 2e67 0240 ba71 203f 7150 7bbe 65ee 18bf
000001a0: 52fe 9a3e 0a67 623f cc66 11be 2144 e6be
000001b0: 5f76 003f 10e9 4d3f 912c a6bf 6eb5 9dbf
000001c0: 25bb 5fbf 2431 65bf 4d42 16bd d46f cb3e
000001d0: 2934 e0bf fe19 98bf 4c79 afbf 6951 ea3f
000001e0: 57af 40be 2049 6a3d e6c2 2f3e 80dc d5bc
000001f0: a8b9 923c d241 013e 05cd 08be 8c04 40be
00000200: 0874 e33d 0c9a 0f3d 16eb 24be 5414 f5bd
00000210: 7403 9e3d 41fa a5bd f0dc fdbc 601d 503e
00000220: 99df 27be ca68 1ebe b09a 8f3d 6408 e23d
00000230: b084 41be 9e94 ffbd 3881 f3bc c298 08be
00000240: eb54 bf3c 3b5f c5bd d9a0 853d ae00 13be
00000250: 7c73 8cbd c26d 9cbe 82f9 71be 7454 4bbe
00000260: 29f0 803d ee42 a43d 5e03 713d 5579 83be
00000270: 0310 55be fcb0 8ebe 5d38 47bd bb9b 02be
00000280: 1b43 57bd b2b2 5a3d 78b6 83be 7202 40be
00000290: 97ed 693d c445 44be cdcb b9be 62fb 423e
000002a0: 32a2 00c1 92af 0d3f 96d1 52c0 ae64 d5c0
000002b0: 3cb5 4340 5c94 88bf 5570 b9bf b0b4 b3bf
000002c0: dd7e ae3e 24d8 223f b0bd 88bf 1832 69bf
000002d0: 114a 423f c077 ee3e be3b 78c0 6425 2040
000002e0: ed34 2340 8aad 403f 23b9 bbbf f213 3cc0
000002f0: 6a80 4640 bf30 7640 5858 b7bf 42eb 133f
00000300: 9da7 09c1 e4f0 b83f 7935 ac3f bf4f a63f
00000310: 9c63 7f40 7974 dcbe d2a2 eb3d 0174 27be
00000320: 2a3f 073f 58ed ce3f 3f43 96bf 8336 58bf
00000330: 69bd 903f db96 453d f90c 193f c267 143d
00000340: 6b6d e7bf 59fe 00c0 9357 3abe 7097 203f
00000350: e633 a0be 8f23 413f da4c 8cbf 4370 513f
00000360: 24d6 6bbe f760 0b3e a880 1bbe 1f8d 2a3d
00000370: fd8c e8bd 0751 09be dba9 5abe adc0 1f3e
00000380: 6070 89ba 2279 a93d b640 753d 3529 73bd
00000390: bb52 b93d 288d d4bd ac1a 893d fe7d 8c3d
000003a0: 8117 bbbc bb93 1ebe a5aa cf3c 2b26 84bd
000003b0: 22d9 febd 5046 ee3b 1983 4bbe 064e 34bd
000003c0: cfc6 95bf 0e6a aabf b39f e43f d0df 2abf
000003d0: f3b1 04c0 3f87 943d abf4 1240 fb41 953f
000003e0: 946b 05c0 cd6b 913f cca5 3a40 d20d 823f
000003f0: d031 73bf 5037 08bf 035e 763f 387f 87be

l1.bias f4 [256]
-0.45161712 -0.24019189 -0.08548431 -0.12601633 -0.13223776 -0.17854303 -0.13415198 0.10727756
-0.21089828 -0.3116401 -0.16496022 -0.1828801 -1.4130332 -0.08741403 -0.14781219 -0.03160062
-0.17222136 -0.25461406 -0.580174 -0.21596806 -0.4277196 -0.2622734 -0.058086034 -0.17283493
-0.12778752 -0.7798058 -0.2174928 -1.6087192 -1.2258649 -0.19739571 -0.2305734 -0.23876975
-0.4029944 -0.21618664 -0.39527327 -0.59610254 -0.07873484 -0.16933554 -0.08250749 -0.8439328
-0.15890592 -1.0008113 -0.20799853 -0.10830283 -0.17781143 -0.06852962 -0.3982156 -0.36222994
-0.29906586 -0.04676898 -0.076177485 -0.26174435 -0.09555618 -0.16496165 -0.9170235 -0.052817058
0.074088536 -0.17312992 -0.025647698 -0.24481201 -0.06087355 -0.015951248 -0.13313743 -0.057044946
-0.22910018 -0.1995983 -0.8502429 -0.062568575 -0.659266 -0.62826985 -0.14004447 -0.0679565
-0.404642 -0.068798736 -0.2439013 -0.37542996 -0.025377605 -0.80008376 -1.0934386 0.09193116
-0.102788284 -0.055439945 -0.0066911858 -0.051061433 -0.16559185 -0.5478903 -0.7859058 -0.24841838
-0.09406408 -0.8727739 -0.42415416 -0.1369015 -0.19285056 -0.16294494 -0.3448317 -1.1006182
-1.7554535 -0.1583268 -0.2804815 -0.29594272 -0.49367958 -0.2736452 -0.03877395 -0.392748
-0.03309435 -0.3277756 -0.1432389 -0.046400476 -0.0797644 -0.25391677 -0.283568 -0.8317944
-0.14658871 -0.20767656 0.30628738 -0.1908134 -0.40273556 -0.13513903 -0.079051055 -0.15523323
-0.89465904 -0.4684488 -0.29880127 -0.37207893 -0.15169814 -0.8165834 -0.37880138 -1.1517808
-0.28423956 -0.24957152 -0.12150742 -0.039643865 -0.59975255 -0.41922224 -0.27670842 -0.14617829
-0.082594894 0.041753255 -0.18462743 -0.12329465 -0.32648504 -0.11146427 -1.0246894 -0.103584096
-0.17514719 -0.0652908 -0.12939748 -0.2245544 -0.15695731 -0.018525982 -0.090249225 -0.28635517
-0.2460975 -0.07468162 -0.17140213 -0.15309514 -0.34624922 -0.26212743 -0.2239292 -0.42441535
-1.4975322 -0.0921093 -0.15841977 -0.30725524 -0.14855678 -0.072234 -0.017101327 -0.19603842
-0.5098103 -0.25784516 -0.14686759 -0.069126606 -0.5072124 -0.58877873 -0.16385908 -0.16030177
-0.13606958 -0.42256367 -0.19059992 0.18702964 -0.1688659 -0.19746237 -0.09966903 -0.41164565
-0.40423113 -0.23807351 -0.1834328 -0.15499079 -0.99909896 -0.10926996 -0.41988516 -0.2856302
-0.2779656 -0.09038567 -0.1475601 -0.6072215 -0.24089004 -0.26608062 -0.20839219 -0.07752485
-0.47942305 -0.23810276 -1.4219884 0.15805535 -0.15262341 -0.16287382 -0.31350467 -0.17719853
-0.73477393 -0.31633174 -0.038434878 -0.16112874 -0.240612 -0.18873556 -0.099885084 -0.26839042
-0.2540177 -0.14097284 -0.11698621 -0.3460019 -0.3428336 -0.3380244 -0.33868274 -0.37079683
-0.1377806 -0.20484695 -0.19328691 -0.05624754 -0.06837621 -0.22695561 -1.2702105 -0.20938511
-0.30711663 -0.21173427 -0.70513964 -0.41809833 -0.12858213 -0.12205994 -0.058576487 -0.12022604
-0.04917838 -0.07522667 -0.19327115 -0.070669666 -0.26661283 -1.5088866 -0.13591532 -0.14124057
-0.04203166 -0.24070825 -0.28597742 -0.06358039 -0.04967331 -0.39165774 -0.8604422 -0.12905191
00000000: 5c3a e7be ddf4 75be 6612 afbd 6d0a 01be
00000010: 5669 07be fcd3 36be 235f 09be 56b4 db3d
00000020: b8f5 57be 4b8f 9fbe 55eb 28be ec44 3bbe
00000030: 46de b4bf 2106 b3bd 145c 17be a76f 01bd
00000040: cc5a 30be c65c 82be 4986 14bf bb26 5dbe
00000050: 10fe dabe b348 86be 9feb 6dbd a4fb 30be
00000060: bbda 02be 5aa1 47bf 6fb6 5ebe 83ea cdbf
00000070: 24e9 9cbf 1a22 4abe 6f1b 6cbe 0f80 74be
00000080: 4855 cebe 0860 5dbe 4261 cabe 2d9a 18bf
00000090: bb3f a1bd 4c66 2dbe b0f9 a8bd fb0b 58bf
000000a0: 3cb8 22be 961a 80bf 91fd 54be e0cd ddbd
000000b0: 3314 36be 4259 8cbd eae2 cbbe 3476 b9be
000000c0: 291f 99be d490 3fbd f102 9cbd 5b03 86be
000000d0: f5b2 c3bd b5eb 28be 0dc2 6abf b356 58bd
000000e0: bbbb 973d f848 31be 1f1b d2bc 00b0 7abe
000000f0: 8b56 79bd 31ac 82bc 2e55 08be f6a7 69bd
00000100: 3d99 6abe 7f63 4cbe 85a9 59bf f423 80bd
00000110: a8c5 28bf 4bd6 20bf d167 0fbe c72c 8bbd
00000120: 3c2d cfbe 5ae6 8cbd 43c1 79be 5b38 c0be
00000130: b2e4 cfbc 4ad2 4cbf ccf5 8bbf 6746 bc3d
00000140: aa82 d2bd ff14 63bd bc41 dbbb cb25 51bd
00000150: e990 29be 8a42 0cbf 1f31 49bf 6361 7ebe
00000160: aba4 c0bd 1c6e 5fbf bc2a d9be e82f 0cbe
00000170: 9e7a 45be 0adb 26be c88d b0be 0fe1 8cbf
00000180: b3b2 e0bf 6c20 22be 459b 8fbe ce85 97be
00000190: 92c3 fcbe 391b 8cbe 6fd1 1ebd 4416 c9be
000001a0: f18d 07bd 34d2 a7be 38ad 12be 6d0e 3ebd
000001b0: 855b a3bd 6101 82be d32f 91be 7af0 54bf
000001c0: 5a1b 16be 2aa9 54be b3d1 9c3e 9764 43be
000001d0: 5b33 cebe e361 0abe 85e5 a1bd 76f5 1ebe
000001e0: 6008 65bf 85d8 efbe 7bfc 98be 2181 bebe
000001f0: c256 1bbe 9c0b 51bf 41f2 c1be 8e6d 93bf
00000200: d987 91be ad8f 7fbe e2d8 f8bd 9b61 22bd
00000210: 6289 19bf 4ca4 d6be baac 8dbe c3af 15be
00000220: 8327 a9bd 7605 2b3d f90e 3dbe e881 fcbd
00000230: 0c29 a7be 6147 e4bd 0629 83bf e623 d4bd
00000240: c959 33be 2fb7 85bd c680 04be 97f1 65be
00000250: 6bb9 20be cdc3 97bc 96d4 b8bd 259d 92be
00000260: fc00 7cbe adf2 98bd 0a84 2fbe f9c4 1cbe
00000270: 9447 b1be 9135 86be b24d 65be f84c d9be
00000280: 23af bfbf cda3 bcbd cb38 22be 8f50 9dbe
00000290: 451f 18be 6bef 93bd 1518 8cbc 4cbe 48be
000002a0: ee82 02bf 4804 84be 7564 16be 4092 8dbd
000002b0: acd8 01bf 34ba 16bf adca 27be 2626 24be
000002c0: d355 0bbe 445a d8be a02c 43be b384 3f3e
000002d0: 2feb 2cbe 9333 4abe 471f ccbd 38c3 d2be
000002e0: 62f7 cebe 8bc9 73be cfd5 3bbe e8b5 1ebe
000002f0: f3c4 7fbf eec8 dfbd 30fb d6be 1f3e 92be
00000300: 8251 8ebe 1f1c b9bd ff19 17be de72 1bbf
00000310: e1ab 76be b83b 88be c364 55be 59c5 9ebd
00000320: f076 f5be 36d1 73be b703 b6bf 43d9 213e
00000330: 5049 1cbe 65c8 26be af83 a0be 8873 35be
00000340: 251a 3cbf 3cf6 a1be e46d 1dbd effe 24be
00000350: fe62 76be e543 41be 8d90 ccbd 786a 89be
00000360: 9c0e 82be 2f5b 10be 7796 efbd 2927 b1be
00000370: e387 afbe 8911 adbe d367 adbe 15d9 bdbe
00000380: 5c16 0dbe 66c3 51be 01ed 45be d263 66bd
00000390: d408 8cbd 0d67 68be 4296 a2bf 0d69 56be
000003a0: 643e 9dbe ded0 58be 0884 34bf fc10 d6be
000003b0: 09ab 03be 90fa f9bd e6ed 6fbd 1239 f6bd
000003c0: 456f 49bd 7110 9abd dfe8 45be 42bb 90bd
000003d0: 7a81 88be 3223 c1bf 632d 0bbe 5ea1 10be
000003e0: 6429 2cbd 397c 76be a26b 92be 6f36 82bd
000003f0: 3e76 4bbd 5d87 c8be f145 5cbf 2f26 04be

l2.weight f4 [5, 256]
-0.029398449 -0.010644101 -1.8445487 -0.01993861 0.47261372 0.02651225 0.020231117 -0.48257968
-0.23808087 0.02196463 -2.380608 0.059696555 0.13838723 -0.0017059124 -0.13343953 -0.10176907
0.018022915 -0.08617432 -1.5896397 -0.0024251638 0.20507702 -0.19012712 -2.0910218 0.0056901826
0.14569128 0.36969298 -0.17788877 1.0024034 -0.14864783 -0.14238769 -1.556241 -0.09169537
0.21149018 0.044884644 0.47508842 -0.17744778 -0.009657231 0.048889667 -1.6574637 0.10020504
0.02222001 0.14463052 -0.05673571 -0.018074451 -0.018703753 2.2491531 -0.5751571 0.01032948
-1.1117074 0.019931456 -0.09032288 -0.0055433977 0.024259575 -0.42969865 0.52212393 0.05633039
0.39045233 0.012687527 0.048132833 -1.03006 0.29531616 1.6890913 -0.09266636 -0.33180106
-2.4949663 -0.0464966 0.5254523 0.023425872 0.46436965 -0.16431648 -0.057303626 -0.93840605
1.374557 -0.5434583 -6.3438954 -0.33728376 -0.6348327 0.2800203 -0.39786962 0.7665292
-0.054860033 0.44080284 -0.35270578 -0.061792865 -0.41729352 -0.8784266 -0.33948636 -0.6429467
-1.7774239 0.1557098 -0.28124022 -1.0609342 -0.65515673 -0.07339295 -0.41199383 -0.008621103
0.32355976 -0.06169571 -0.64790356 -0.066592515 0.35983065 -0.0656508 0.11676695 -2.3393922
-1.7767683 -0.03386933 -0.0010465548 -0.0910848 -0.6834594 -0.052779336 -3.6491537 -0.37733644
-0.013967273 -0.0028756734 2.1912444 -0.05123015 0.74472696 -0.046483718 -0.3811529 -0.05593388
0.18209094 -1.5895343 0.22759873 -0.2570532 0.035032995 0.6888537 0.13331056 -0.030091215
-0.12189252 -0.0836751 -0.0018102011 -1.4941041 0.054098267 -0.31870502 -0.08204283 -0.028114289
-0.019129 0.0016717336 -0.12193812 -0.016185382 -0.4989214 0.06332732 0.31727153 -1.0375118
-6.5035165e-05 -1.2662588 0.056337874 0.29976124 0.013154379 0.030140178 0.03562709 0.36967668
0.040348887 -0.079851255 -1.5528872 0.05485619 -0.86316705 0.4607947 -0.63274664 0.5565464
0.052982856 0.0491293 0.026754638 -0.3280496 -0.08339991 -1.2413402 -1.115572 0.0005551627
-0.547858 -0.05276907 -0.12854132 0.019394485 -0.28001 -0.3564087 0.03853011 0.2371162
0.15465844 2.4952674 0.08250088 0.28388244 0.37436628 -1.7034166 -0.53871703 -0.52953285
-0.5319619 0.4249286 0.08425857 -0.20080462 -0.34184003 -0.049904868 0.293468 -0.36660358
0.07128034 -0.028438866 -0.023920339 -0.1474944 0.04075983 -0.05339941 -0.09786604 0.0152326375
0.19541502 -0.1430735 -0.19585608 -0.059926387 -0.29369754 0.019907117 -1.3460187 0.068897225
0.14121187 -0.14782482 0.5190613 -0.122813106 -0.0695873 0.006457669 -0.094930865 -0.2642801
-0.06964532 -0.21586718 0.17586772 0.6454825 0.307317 -0.62847316 -0.009892355 -2.3802094
-0.0056219622 -6.229277 -0.07070603 -0.05064322 -0.14198959 -0.048225746 0.81999975 -0.33644816
-0.13692269 -0.09288401 1.1106663 -0.29075974 -0.037619803 0.042645488 -0.1481246 -0.37746495
-0.08666923 0.0034532833 -0.42569435 -0.7324496 -1.0073838 0.87964183 -0.03883862 0.3071318
0.02219773 -0.093369156 -5.4575334 -0.46767893 -0.6944598 0.7481822 -0.37567636 0.053468928
00000000: 04d5 f0bc 9864 2ebc 2c1a ecbf 4c56 a3bc
00000010: 6dfa f13e 3830 d93c babb a53c af14 f7be
00000020: 79cb 73be 2bef b33c e25b 18c0 6084 743d
00000030: 62b5 0d3e ec98 dfba 5fa4 08be 4d6c d0bd
00000040: cba4 933c 297c b0bd 5079 cbbf 7fef 1ebb
00000050: b6ff 513e afb0 42be 4dd3 05c0 b674 ba3b
00000060: 1830 153e 6648 bd3e 7928 36be c14e 803f
00000070: 2337 18be 14ce 11be e832 c7bf c8ca bbbd
00000080: e290 583e f6d8 373d ca3e f33e dfb4 35be
00000090: 5d39 1ebc 8840 483d c527 d4bf 4d38 cd3d
000000a0: bd06 b63c 061a 143e b463 68bd df10 94bc
000000b0: 9d38 99bc 20f2 0f40 7f3d 13bf fb3c 293c
000000c0: 6e4c 8ebf 4b47 a33c 34fb b8bd 64a5 b5bb
000000d0: 04bc c63c 7601 dcbe eaa9 053f b2ba 663d
000000e0: 5ee9 c73e 58df 4f3c ef26 453d 02d9 83bf
000000f0: ae33 973e 2534 d83f dcc7 bdbd d4e1 a9be
00000100: 87ad 1fc0 3873 3ebd 0b84 063f 9de7 bf3c
00000110: dcc1 ed3e 9442 28be 35b7 6abd 613b 70bf
00000120: 7cf1 af3f 1520 0bbf 3101 cbc0 75b0 acbe
00000130: 6584 22bf d25e 8f3e 91b5 cbbe 423b 443f
00000140: eab4 60bd e9b0 e13e da95 b4be 841a 7dbd
00000150: 7fa7 d5be 91e0 60bf 28d1 adbe 2898 24bf
00000160: a082 e3bf 6472 1f3e b8fe 8fbe b1cc 87bf
00000170: 5ab8 27bf 0b4f 96bd dbf0 d2be 873f 0dbc
00000180: a0a9 a53e a4b4 7cbd 02dd 25bf a861 88bd
00000190: b93b b83e ed73 86bd 8323 ef3d 9ab8 15c0
000001a0: 256d e3bf 91ba 0abd 8d2c 89ba ab8a babd
000001b0: 32f7 2ebf 252f 58bd bc8b 69c0 3e32 c1be
000001c0: fdd6 64bc cb75 3cbb 593d 0c40 b5d6 51bd
000001d0: 6da6 3e3f b665 3ebd 7926 c3be ed1a 65bd
000001e0: 0c76 3a3e dc75 cbbf a40f 693e 7a9c 83be
000001f0: c27e 0f3d b758 303f 9082 083e da81 f6bc
00000200: c9a2 f9bd da5d abbd 4544 edba ce3e bfbf
00000210: 2596 5d3d 4e2d a3be 1206 a8bd f04f e6bc
00000220: 6cb4 9cbc 121e db3a b1ba f9bd 3597 84bc
00000230: a072 ffbe c1b1 813d 6a71 a23e 30cd 84bf
00000240: 7d63 88b8 c514 a2bf 8bc2 663d 4e7a 993e
00000250: 7785 573c 89e8 f63c b6ed 113d 4346 bd3e
00000260: e044 253d 0e89 a3bd 02c5 c6bf e2b0 603d
00000270: 84f8 5cbf 48ed eb3e affb 21bf d379 0e3f
00000280: 8d04 593d ce3b 493d 8b2c db3c 1ef6 a7be
00000290: 92cd aabd 3ce4 9ebf 10cb 8ebf 5788 113a
000002a0: 6c40 0cbf 6124 58bd 56a0 03be 2fe1 9e3c
000002b0: 795d 8fbe 337b b6be c0d1 1d3d 97ce 723e
000002c0: c85e 1e3e 76b2 1f40 39f6 a83d 0a59 913e
000002d0: f0ac bf3e 8e09 dabf 5ce9 09bf 778f 07bf
000002e0: a82e 08bf 3e90 d93e c28f ac3d ba9f 4dbe
000002f0: a805 afbe 0c69 4cbd 7041 963e 77b3 bbbe
00000300: 6dfb 913d a0f8 e8bc 96f4 c3bc c608 17be
00000310: c8f3 263d 57b9 5abd fe6d c8bd 5092 793c
00000320: e01a 483e dc81 12be 7f8e 48be 5f75 75bd
00000330: 865f 96be 4014 a33c 574a acbf fd19 8d3d
00000340: d899 103e 645f 17be 34e1 043f 7085 fbbd
00000350: c983 8ebd db9a d33b 1d6b c2bd b94f 87be
00000360: 35a2 8ebd 490c 5dbe ab16 343e 573e 253f
00000370: a758 9d3e 9ee3 20bf 8b13 22bc 5a55 18c0
00000380: 7038 b8bb 3d56 c7c0 53ce 90bd 446f 4fbd
00000390: b865 11be 5c88 45bd 81eb 513f ef42 acbe
000003a0: 7635 0cbe f939 bebd 502a 8e3f 76de 94be
000003b0: 3917 1abd 09ad 2e3d faad 17be 1643 c1be
000003c0: a37f b1bd 7b50 623b 9cf4 d9be d181 3bbf
000003d0: f4f1 80bf 3530 613f 3f15 1fbd 6140 9d3e
000003e0: 04d8 b53c 5438 bfbd 1da4 aec0 9d73 efbe
000003f0: 1ec8 31bf de88 3f3f a758 c0be 3c02 5b3d

l2.bias f4 [5]
-1.4189928 -0.36676237 0.31586146 0.27560374 1.1982117
00000000: 8ea1 b5bf 47c8 bbbe 98b8 a13e ef1b 8d3e
00000010: 005f 993f
